code/3class_BCImodel.pt (torch_old, 205708 bytes, 9 tensors)

conv_time.weight f4 [40, 1, 25, 1]
0	0xbf0ddb22	-0.55412495
1	0xbf1138b6	-0.5672716
2	0x3e9fbae8	0.31197286
3	0x3ebb0f0a	0.3653491
4	0xbdc830b7	-0.097749166
5	0xbd488ab3	-0.0489604
6	0x3ee7d8fd	0.45282736
7	0x3f729c2f	0.9476957
8	0x3e743b4c	0.23850745
9	0x3b5eab27	0.0033976526
10	0xbe0cd23d	-0.13752075
11	0xbeb5720d	-0.35438576
12	0x3e74ae53	0.23894624
13	0x3e91885d	0.2842435
14	0x3e34d98d	0.17661114
15	0x3e9123f6	0.2834775
16	0xbf532c56	-0.82489526
17	0xbfa99a9a	-1.3250306
18	0xbeb8f4f3	-0.3612438
19	0xbd884204	-0.066532165
20	0xbe46caac	-0.1941325
21	0x3e091f37	0.13390814
22	0x3eba76b8	0.364187
23	0x3d45f3d7	0.048328247
24	0x3f166cf0	0.58759975
25	0x3f5c73a9	0.86113983
26	0x3e370306	0.17872247
27	0xbf4b5837	-0.7943148
28	0xbe795074	-0.24347097
29	0x3e737743	0.23775963
30	0xbeff8c7d	-0.49911872
31	0xbf415686	-0.7552265
32	0x3ddb865d	0.10718987
33	0x3eb921e7	0.36158678
34	0xbda9038f	-0.08252632
35	0xbe77d034	-0.24200517
36	0xbeb26744	-0.3484441
37	0xbeaf7933	-0.34272155
38	0xbe3733c2	-0.17890838
39	0x3f6cb3df	0.9246196
40	0x3eda6185	0.42652526
41	0xbe7d5e54	-0.24743015
42	0x3e89908a	0.26868087
43	0x3eb3de0a	0.3513034
44	0x3ea63d18	0.32468486
45	0x3ec76500	0.38944244
46	0xbe96bbc8	-0.2944014
47	0xbf34d9f8	-0.70645094
48	0xbecd116b	-0.4005235
49	0xbf226949	-0.634419
50	0x3ee14e67	0.4400513
51	0x3ed360ff	0.4128494
52	0xbe66f64d	-0.22554894
53	0xbf6c48ba	-0.9229847
54	0xbee939ac	-0.45551813
55	0x3e9e2f45	0.3089544
56	0x3d55a411	0.05215842
57	0xbe18c0de	-0.14917323
58	0x3ec273d1	0.37978986
59	0x3f115615	0.56771976
60	0x3e5cd219	0.21564521
61	0x3ea0910f	0.3136067
62	0xbeb45e03	-0.35227975
63	0xbf97df62	-1.1865046
64	0xbec38a7b	-0.3819159
65	0x3ed78b1c	0.4209832
66	0x3f254627	0.6456017
67	0x3e6c738b	0.23090951
68	0x3e1b3d2b	0.15160052
69	0x3dbdc8c6	0.0926681
70	0x3d7b56c4	0.061362043
71	0x3f163427	0.5867333
72	0x3f478793	0.77941245
73	0xbe0fc8f9	-0.14041509
74	0xbfa0709d	-1.2534367
75	0xbe8a5b8c	-0.2702297
76	0x3de51166	0.11184959
77	0x3f17ae8c	0.5925071
78	0xbe8dd321	-0.2770014
79	0xbf54494b	-0.82924336
80	0xbef1a0c1	-0.47192958
81	0x3d4229c1	0.0474031
82	0x3ee0a473	0.43875465
83	0x3ef086a1	0.46977714
84	0xbeb18231	-0.3466964
85	0xbf17b6ea	-0.5926348
86	0xbd996706	-0.07490353
87	0x3e28dda8	0.16490805
88	0x3eebf3c3	0.46084413
89	0x3e8220c5	0.25415626
90	0x3dce82b0	0.100835204
91	0xbe4e2df8	-0.20134723
92	0x3ca80025	0.020507881
93	0x3df81414	0.121132046
94	0xbf57c027	-0.84277576
95	0xbf19d8ca	-0.6009642
96	0xbb6d177c	-0.0036177328
97	0x3e98aa6b	0.2981752
98	0x3ef55519	0.47916487
99	0x3f7af561	0.9803067
100	0x3f75d69d	0.960306
101	0x3f37b45b	0.71759576
102	0x3f910d4f	1.1332186
103	0x3f134fde	0.5754374
104	0xbeab2983	-0.33430108
105	0xbf1f95fa	-0.6233822
106	0xbf6283be	-0.8848227
107	0xbf5a353d	-0.85237485
108	0xbf45aa8a	-0.77213347
109	0xbf52af9e	-0.8229922
110	0xbec1da3a	-0.37861806
111	0xbe88e431	-0.26736596
112	0x3d8d952f	0.0691322
113	0xbd095124	-0.033524647
114	0xbe1cbf34	-0.15307313
115	0x3f35f774	0.7108071
116	0x3f568144	0.83790994
117	0x3f1c12e7	0.6096634
118	0x3f960a18	1.172183
119	0x3fa3d6cf	1.2799929
120	0x3f24f9c6	0.64443624
121	0xbe161eff	-0.14660262
122	0xbf8264f9	-1.0187064
123	0xbf7c5158	-0.9856162
124	0xbf737c33	-0.9511139
125	0x3e51ee01	0.20500948
126	0x3e3170e9	0.17328228
127	0x3f498ee0	0.78733635
128	0x3f58007a	0.8437573
129	0x3edaddde	0.42747396
130	0x3f0c2b1a	0.5475327
131	0xbdddf121	-0.10837007
132	0xbf763b28	-0.96184015
133	0xbf34b462	-0.7058774
134	0x3e932daa	0.28745776
135	0x3f1ff239	0.6247898
136	0xbf5c56ef	-0.8607015
137	0xbf7bfb11	-0.9842997
138	0x3f94e3ba	1.1631997
139	0x3f29909e	0.66236293
140	0xbc3b18ad	-0.011419457
141	0x3f8a379a	1.0798218
142	0x3ebdc29e	0.37062544
143	0xbf7bf9c4	-0.9842799
144	0xbf176259	-0.5913444
145	0xbeac3523	-0.3363429
146	0xbf78f267	-0.97244877
147	0xbecbfa18	-0.39839244
148	0x3eea142e	0.4571852
149	0x3d8607e6	0.06544475
150	0xbfd6208b	-1.6728681
151	0xbce60cef	-0.02808234
152	0x3f04b1da	0.5183388
153	0x3f12d828	0.5736108
154	0xbd6e01ff	-0.058107372
155	0xbed46ffe	-0.41491693
156	0x3dcf0874	0.10109034
157	0x3e7d4414	0.24733001
158	0xbe0d0f55	-0.1377538
159	0x3f04de64	0.5190184
160	0x3eaecb3e	0.34139436
161	0xbf21d2a7	-0.63212055
162	0x3e19f69f	0.15035485
163	0x3f342b7b	0.70378846
164	0x3eab5dba	0.33469945
165	0xbe124911	-0.14285685
166	0xbded4942	-0.115862384
167	0xbe404302	-0.18775561
168	0xbf7e9217	-0.99441665
169	0xbf552878	-0.83264875
170	0xbd573176	-0.052537404
171	0x3f24b489	0.64337975
172	0xbec68d1c	-0.38779533
173	0xbea6a230	-0.32545614
174	0x3e24ea3d	0.1610498
175	0xbe7babfd	-0.24577327
176	0xbf04449c	-0.5166719
177	0x3f2005cc	0.62508845
178	0x3e9e31b3	0.30897292
179	0xbf38f87d	-0.72254163
180	0xbf18df0a	-0.5971533
181	0x3f0bd071	0.5461493
182	0x3f0f228c	0.5591209
183	0x3ef7a273	0.48366126
184	0x3eb6bd09	0.35691097
185	0xbe2ab03e	-0.16668794
186	0x3eee3848	0.46527314
187	0x3e6292a3	0.2212625
188	0xbf0f6bf8	-0.5602412
189	0xbd4566ba	-0.04819367
190	0xbed66af4	-0.41878474
191	0xbf6a8c08	-0.9161992
192	0xbe4ae502	-0.19813922
193	0x3e63a9b3	0.22232704
194	0xbe360cdd	-0.17778344
195	0xbe2921c2	-0.16516784
196	0x3f3691ad	0.71316034
197	0x3f795346	0.9739269
198	0x3d571a06	0.052515052
199	0x3eb8002e	0.35937637
200	0x3f233eab	0.637675
201	0x3f866ed0	1.0502567
202	0x3b3b3b39	0.0028569235
203	0xbef9176b	-0.4865068
204	0xbe3c6c8a	-0.1840078
205	0x3df87eaa	0.12133534
206	0xbd9801fd	-0.07422254
207	0xbee89356	-0.45424908
208	0xbf81f31f	-1.015232
209	0xbf2d8b19	-0.6779037
210	0x3f02ae4e	0.5104722
211	0x3f377199	0.7165771
212	0xbd1d5d2d	-0.038418937
213	0x3e9914c3	0.29898652
214	0xbedcfef9	-0.4316328
215	0xbf16e46e	-0.58942306
216	0x3ef1a525	0.47196308
217	0x3e8499a4	0.25898468
218	0x3ed9944c	0.42495954
219	0x3f23a33b	0.63920945
220	0x3f27b064	0.65503526
221	0xbe3b4212	-0.18286923
222	0xbf1dce2f	-0.61642736
223	0x3e41acf6	0.18913636
224	0xbf0a8ddb	-0.54122704
225	0x3ee22b8f	0.44173858
226	0xbaaaf753	-0.0013043679
227	0x3db335f7	0.08750527
228	0x3e36f2b0	0.17866015
229	0x3d41993f	0.047265287
230	0xbefb82f6	-0.49123353
231	0xbf7e1055	-0.9924367
232	0xbeaf0db2	-0.34190136
233	0xbe9c1584	-0.30485165
234	0xbdba8f1b	-0.091093265
235	0x3de6eed2	0.1127602
236	0x3e52e444	0.20594889
237	0x3e207e76	0.15673241
238	0x3e2c57ff	0.16830443
239	0x3ee1af41	0.4407902
240	0x3ea190cb	0.3155578
241	0x3f176ff1	0.59155184
242	0x3f2228f2	0.6334373
243	0xbe5a1ae2	-0.21299317
244	0xbe12b462	-0.14326623
245	0x3def5139	0.11685414
246	0x3f2437bb	0.6414754
247	0x3f43607f	0.76319116
248	0xbf0a9ac0	-0.5414238
249	0xbf3bfc67	-0.7343201
250	0xbf86fd2b	-1.0546011
251	0x3f1a3b9a	0.60247195
252	0x3f66c88e	0.9014977
253	0x3c3a27fd	0.011362073
254	0x3e97dde4	0.29661477
255	0x3d889c5c	0.06670448

conv_time.bias f4 [40]
0	0x3fb5fe50	1.4218235
1	0xbf893be9	-1.0721408
2	0xc10e3eef	-8.890365
3	0xbea127e6	-0.31475753
4	0xc06a7ffb	-3.6640613
5	0xc16414c8	-14.255074
6	0x4004156a	2.063807
7	0xc0a73b2f	-5.2259746
8	0x3f89107d	1.0708157
9	0x414b1ef6	12.695059
10	0x3f59b66c	0.8504398
11	0xc0a5b62a	-5.178487
12	0xc0c9e16f	-6.3087687
13	0xbf1cadb4	-0.6120255
14	0xc0d0b13b	-6.5216346
15	0x40f158b6	7.542079
16	0x3f930dc1	1.1488572
17	0xbf859076	-1.0434711
18	0x3f0d0e70	0.55100155
19	0x406b8bdf	3.680412
20	0x41030c08	8.190437
21	0xc10663d2	-8.39937
22	0x3f3e10db	0.7424447
23	0x400767c9	2.1157095
24	0xc060b5ba	-3.5110917
25	0x4071ad01	3.7761843
26	0x3f6be969	0.9215303
27	0x4069ae8d	3.6512787
28	0xc0705574	-3.7552156
29	0x40e159f6	7.0422316
30	0x409eeeaf	4.966636
31	0x4028f28a	2.6398034
32	0xbfbd3909	-1.4783031
33	0xc0ebd484	-7.369692
34	0x3fffeb47	1.9993676
35	0x403e8a76	2.977201
36	0xc0d32cf0	-6.5992355
37	0xc100ecc2	-8.057802
38	0xbfbaedff	-1.4603881
39	0xbf98c65d	-1.1935536

conv_spat.weight f4 [40, 40, 1, 30]
0	0xbe767015	-0.24066193
1	0x3e8b7259	0.27235678
2	0xbda76cda	-0.08175059
3	0xbf410165	-0.7539275
4	0xbf315554	-0.69270825
5	0x3d042431	0.032261077
6	0x3f634656	0.887792
7	0x3d5db8bf	0.054131266
8	0xbf71c0c7	-0.9443478
9	0xbf2dae74	-0.6784432
10	0xbf01aa45	-0.50650436
11	0xbf384a9d	-0.7198885
12	0x3e97d728	0.2965634
13	0xbec60d0c	-0.3868183
14	0xbf01f13c	-0.5075872
15	0x3e8a3522	0.26993662
16	0xbca548c0	-0.020176291
17	0xbdf3c14c	-0.11902103
18	0x3d78e7a7	0.060767796
19	0x3ed9d334	0.42543948
20	0x3e2560c4	0.16150194
21	0x3ee62bd2	0.44955307
22	0x3eafc270	0.34328032
23	0x3f01248d	0.504464
24	0x3de1d4a6	0.110268876
25	0xbf05eab4	-0.52311254
26	0x3ef46a11	0.47737172
27	0x3eb19eda	0.34691507
28	0x3ee0e680	0.43925858
29	0xbe10ee15	-0.14153321
30	0x3f16f243	0.5896341
31	0xbc57a942	-0.013162913
32	0x3e3215a4	0.17391068
33	0x3f11b1a3	0.5691168
34	0x3f237db1	0.63863665
35	0xbe9fec31	-0.31234887
36	0x3da036b0	0.07822931
37	0xbe2bf57f	-0.16792868
38	0x3f4462e6	0.7671341
39	0xbf71d7d1	-0.94469935
40	0xbeb999c9	-0.3625014
41	0x3b0f09e6	0.0021825968
42	0xbea21dc8	-0.31663346
43	0x3d4bc829	0.049751434
44	0x3e0e212a	0.13879839
45	0xbf514d3a	-0.81758463
46	0x3f289542	0.6585275
47	0x3e88f656	0.2675044
48	0x3e87fcf7	0.26560184
49	0xbea99a35	-0.33125463
50	0xbdbcf365	-0.09226111
51	0xbcf46c18	-0.0298367
52	0x3e4b62f6	0.1986197
53	0xbdbe0962	-0.092791334
54	0x3d6513a8	0.05592695
55	0x3de3a172	0.111147776
56	0x3c9fb43e	0.019495126
57	0x3dca7f8e	0.098876104
58	0xbf3ef54e	-0.74593055
59	0x3ee387de	0.44439596
60	0x3ea5afec	0.3236078
61	0x3eaba280	0.33522415
62	0x3f385674	0.72006917
63	0xbe5095b2	-0.20369604
64	0x3d9a6406	0.07538609
65	0xbf2eb5fb	-0.6824643
66	0x3f983749	1.1891872
67	0xbf0e6350	-0.5562029
68	0xbc0bba2e	-0.008528275
69	0xbf4cacaa	-0.79950964
70	0xbe886916	-0.26642674
71	0xb905f5dd	-0.0001277546
72	0x3e032bb9	0.12809648
73	0x3ea7b5d9	0.32755926
74	0xbf0ce88c	-0.5504234
75	0xbf46105a	-0.773687
76	0x3f761694	0.961282
77	0xbf7d3a2f	-0.98916906
78	0xbf252451	-0.6450854
79	0x3ea9d8e1	0.33173278
80	0x3f5ee7dc	0.8707254
81	0xbf74358c	-0.95394206
82	0xbf1550ef	-0.5832662
83	0xbe355fb2	-0.17712286
84	0x3ebdac03	0.37045297
85	0x3f8b1953	1.0867103
86	0xbee53f6b	-0.44774947
87	0x3e66e744	0.22549158
88	0xbec4f8c3	-0.3847104
89	0xbdbb0edc	-0.091336936
90	0xbfa02640	-1.2511673
91	0xbe74fe4a	-0.23925129
92	0xbf17f1a3	-0.59353083
93	0xbd9db1aa	-0.07699902
94	0xbe0ae87a	-0.13565245
95	0x3f6487c1	0.89269644
96	0x3e9a95f0	0.30192518
97	0x3eb73dba	0.3578928
98	0xbf4fe2f6	-0.8120569
99	0xbdb2bbf6	-0.08727257
100	0x3efc6055	0.49292246
101	0x3dedbc4a	0.11608179
102	0x3f30737a	0.68926203
103	0xbe89962e	-0.2687239
104	0x3f9c29bb	1.2200235
105	0x3f225d34	0.63423467
106	0xbeb4a567	-0.35282442
107	0x3ed6894f	0.41901633
108	0x3e6cdee7	0.23131905
109	0x3e87d25e	0.26527685
110	0xbe03c327	-0.12867413
111	0x3f24a3ef	0.6431264
112	0x3d3bf192	0.045884676
113	0xbd472fd1	-0.048629586
114	0xbe518632	-0.20461348
115	0xbe3d6fee	-0.18499729
116	0xbea34d25	-0.31894794
117	0xbe769497	-0.2408012
118	0x3df3c993	0.119036816
119	0xbeee60a9	-0.4655812
120	0x3f14922e	0.5803555
121	0xbf449e1e	-0.7680377
122	0x3ec7a6d2	0.3899446
123	0x3ec7dd4b	0.3903602
124	0x3f0969f9	0.53677326
125	0xbed60950	-0.4180398
126	0x3c1d7277	0.00960981
127	0x3ef00a40	0.4688282
128	0x3eeef888	0.4667399
129	0x3d1537f1	0.036430303
130	0xbd94d5f2	-0.07267369
131	0x3ee962a1	0.4558306
132	0xbfdaac6e	-1.7083871
133	0xbe87feb2	-0.26561505
134	0x3e6a437d	0.22877307
135	0xbf45f2ec	-0.77323794
136	0xbe7ad12c	-0.24493855
137	0xbed1b013	-0.40954646
138	0xbe24ad3d	-0.1608171
139	0xbf8b0d58	-1.0863447
140	0xbf23f519	-0.64045864
141	0xbe9159d4	-0.28388846
142	0x3ec1d9a7	0.37861368
143	0x3f36e3db	0.7144143
144	0xbd2d828a	-0.04236082
145	0xbda89c8f	-0.08232986
146	0x3ee924ac	0.4553579
147	0x3f149fcd	0.58056337
148	0x3ed4132f	0.41420886
149	0x3ef17753	0.4716135
150	0x3e5ced80	0.21574974
151	0x3e43233f	0.19056414
152	0xbf9d1696	-1.2272518
153	0xbd79c33a	-0.0609772
154	0xbf2f29b4	-0.6842301
155	0x3f849cb5	1.0360323
156	0x3f69cf81	0.9133225
157	0x3d948364	0.07251623
158	0xbf5f6e90	-0.8727808
159	0x3f936fc0	1.1518478
160	0x3f7f5dad	0.9975231
161	0x3dbdfee8	0.09277135
162	0xbec9eebc	-0.39439952
163	0x3e3e7cfb	0.18602364
164	0xbf774341	-0.96586996
165	0xbec73fc0	-0.38915825
166	0xbd4dd379	-0.050250504
167	0xbe1d2e0a	-0.15349594
168	0xbe940c6b	-0.28915724
169	0xbf3e4b49	-0.74333626
170	0xbe6f470d	-0.23366947
171	0xbf270de8	-0.65255594
172	0xbed4e454	-0.4158045
173	0x3c192dac	0.009349268
174	0x3d3a7b99	0.04552803
175	0x3ef3eac7	0.47640058
176	0xbe2c30eb	-0.16815536
177	0x3e802e7e	0.2503547
178	0xbf2669cb	-0.6500518
179	0x3e964361	0.2934828
180	0xbe6820a9	-0.22668709
181	0x3ea62e51	0.32457212
182	0xbed30a93	-0.41219005
183	0x3e8d0fcd	0.27551118
184	0xbea9846e	-0.33108848
185	0x3fa8b4c6	1.3180168
186	0xbe01e290	-0.12684083
187	0x3f160f32	0.58616936
188	0xbf01c471	-0.5069037
189	0x3f5115e9	0.8167406
190	0x3f1fe889	0.62464195
191	0x3edafc46	0.42770594
192	0x3e815cb3	0.25266036
193	0xbf167117	-0.5876631
194	0xbe4dfe09	-0.20116438
195	0x3eaf4bda	0.34237558
196	0xbf17021a	-0.5898758
197	0xbe9a7685	-0.30168548
198	0x3e0bac97	0.13640057
199	0x3e8a06c2	0.2695828
200	0xbe88c5fe	-0.26713556
201	0xbec64c5f	-0.38730142
202	0xbe9c3908	-0.3051226
203	0xbe8960fa	-0.268318
204	0x3e962296	0.29323262
205	0x3e69ba3b	0.22824948
206	0xbe08c7d2	-0.13357475
207	0xbd44d428	-0.04805389
208	0x3e481c59	0.19542064
209	0xbddf7f94	-0.109130055
210	0x3e48a00d	0.19592305
211	0xbdea2c06	-0.11434178
212	0x3f1dc7fa	0.61633265
213	0x3d200aab	0.039072674
214	0x3d83acde	0.06429456
215	0xbfa40b97	-1.2816037
216	0xbf8d2df2	-1.1029646
217	0xbd69e4b3	-0.05710287
218	0x3f0bdd7a	0.5463482
219	0xbe343c5c	-0.1760115
220	0xbfaa1fa1	-1.3290902
221	0xbe1d0d7b	-0.15337174
222	0x3f6e2f07	0.9304051
223	0x3ec08c10	0.3760686
224	0xbfdabf29	-1.7089587
225	0x3e067d37	0.13133703
226	0xbe86000d	-0.26171914
227	0x3da29ba5	0.07939843
228	0xbe001ad5	-0.12510236
229	0x3efaedbb	0.490095
230	0xbc3cfe34	-0.011535216
231	0x3ebb0870	0.36529875
232	0xbe7ef811	-0.24899317
233	0xbf3edd0a	-0.7455603
234	0xbec29aa9	-0.3800862
235	0x3e0b0e10	0.13579583
236	0xbe8a1058	-0.26965594
237	0xbf27ab51	-0.65495783
238	0x3e56e9b0	0.20987582
239	0xbede37b5	-0.43401876
240	0x3f9eba1e	1.2400548
241	0xbea0d938	-0.31415725
242	0x3f22efa5	0.6364692
243	0x3eaa18f8	0.33222175
244	0x3ec15398	0.3775909
245	0x3f2553c1	0.64580923
246	0xbf39e4df	-0.72614855
247	0x3f0cbaf5	0.54972774
248	0x3f0702da	0.52738726
249	0x3f0fd053	0.5617725
250	0xbe0e50f0	-0.13898063
251	0x3e777d78	0.24168956
252	0xbf9638b4	-1.1736054
253	0xbec86247	-0.3913748
254	0xbe195cc8	-0.149768
255	0x3ec81fa7	0.3908665

bnorm.weight f4 [40]
0	0x3f47048a	0.777413
1	0x3f0f09b2	0.5587417
2	0x3f24924f	0.6428575
3	0x3f381af7	0.71916145
4	0x3f53ac40	0.8268471
5	0x3f43b299	0.76444393
6	0x3f3caf90	0.7370539
7	0x3f4a12b9	0.7893482
8	0x3f28827d	0.6582411
9	0x3f55da6c	0.8353641
10	0x3f29b230	0.6628752
11	0x3f218817	0.6309828
12	0x3f71703c	0.9431188
13	0x3f3ef8a4	0.74598145
14	0x3f4bb4cc	0.7957275
15	0x3f401e3b	0.7504613
16	0x3f6d0b2f	0.9259519
17	0x3f38b37c	0.7214887
18	0x3f3cb9dc	0.737211
19	0x3f425cc2	0.7592279
20	0x3f3fc860	0.74915123
21	0x3f4ad004	0.79223657
22	0x3f42dbab	0.76116437
23	0x3f3257db	0.69665307
24	0x3f382809	0.7193609
25	0x3f597408	0.84942675
26	0x3f4b0cac	0.7931621
27	0x3f427e26	0.7597374
28	0x3f5a1ae5	0.8519729
29	0x3f3d56f3	0.739608
30	0x3f49af26	0.7878288
31	0x3f50be8f	0.8154077
32	0x3f3b356f	0.7312841
33	0x3f493c9d	0.78608114
34	0x3f39c962	0.7257291
35	0x3f40cd83	0.75313586
36	0x3f328f45	0.6974986
37	0x3f319251	0.69363886
38	0x3f59b452	0.8504077
39	0x3f56a1a1	0.83840376

bnorm.bias f4 [40]
0	0x3f08b89a	0.5340668
1	0x3f319592	0.6936885
2	0x3f2d5d51	0.67720515
3	0x3f29f1b8	0.6638446
4	0x3f23ce06	0.6398624
5	0x3f0e73d6	0.556455
6	0xbf29c6a0	-0.663187
7	0xbf1808f6	-0.59388673
8	0xbf386393	-0.7202694
9	0xbf2a1ce7	-0.6645035
10	0xbf2d7470	-0.67755795
11	0x3f3400f2	0.7031394
12	0x3edaded9	0.42748144
13	0x3f27fd99	0.65621334
14	0x3f1e2523	0.61775416
15	0x3f302704	0.68809533
16	0xbf07fa2e	-0.5311612
17	0xbf431364	-0.7620146
18	0xbf3ee9f3	-0.7457573
19	0x3f1e333f	0.61796945
20	0xbf3e9452	-0.7444507
21	0xbf1bfcbb	-0.6093251
22	0xbf0efc8c	-0.55854106
23	0x3f35b54a	0.7097975
24	0xbf3ce5a9	-0.73787934
25	0x3f032ec3	0.5124323
26	0xbf254afd	-0.6456755
27	0x3f18253f	0.59431833
28	0xbf228286	-0.6348041
29	0xbf283b3b	-0.6571538
30	0xbf283f1f	-0.65721315
31	0xbf236c48	-0.638371
32	0xbf3a4822	-0.72766316
33	0xbf380a7b	-0.7189099
34	0xbf31858a	-0.6934439
35	0x3f2f1c27	0.6840233
36	0xbf54d202	-0.83132946
37	0xbf2de8ca	-0.6793333
38	0x3ef6379f	0.4808931
39	0xbf0f1270	-0.5588751

bnorm.running_mean f4 [40]
0	0x42751fa6	61.280907
1	0x4224c206	41.189476
2	0xc2b6a094	-91.31363
3	0x42de32c6	111.09917
4	0xc023f8f4	-2.56207
5	0x41b27cbd	22.310907
6	0xc1364d4b	-11.39387
7	0x42837fe8	65.74982
8	0x41a24cf5	20.287577
9	0x42d2251a	105.072464
10	0xc3144483	-148.26762
11	0x41aef2de	21.868587
12	0x422be969	42.97794
13	0x4254b673	53.178173
14	0x4183a9cf	16.457914
15	0xc21b5114	-38.829178
16	0x41c2f703	24.370611
17	0x432b2879	171.1581
18	0xc3b72b94	-366.34045
19	0xc19c45bf	-19.534056
20	0x42061c28	33.527496
21	0xc2551746	-53.272728
22	0x4268e928	58.22769
23	0xc1dcc19e	-27.59454
24	0x4299af3d	76.84226
25	0xc216f08e	-37.734917
26	0xc248e0d6	-50.219566
27	0x4329878d	169.5295
28	0xc10cda00	-8.803223
29	0x4246c939	49.696507
30	0x42a51113	82.53335
31	0x41da230e	27.267117
32	0xc2e1298a	-112.58113
33	0x42f3c72f	121.88903
34	0xc30add8f	-138.86546
35	0x41a68bc7	20.81825
36	0x4392b327	293.39963
37	0x433422c2	180.13577
38	0xc148e6ea	-12.5563755
39	0xc1a69e0c	-20.827171

bnorm.running_var f4 [40]
0	0x45186a03	2438.6257
1	0x4537c7c5	2940.4856
2	0x452c5b6e	2757.7144
3	0x44e464d1	1827.1505
4	0x44dc6fbc	1763.4917
5	0x44a90260	1352.0742
6	0x450ee94a	2286.5806
7	0x4546bf43	3179.9539
8	0x45909328	4626.3945
9	0x452130ff	2579.0623
10	0x4552f6db	3375.4285
11	0x453618d0	2913.5508
12	0x44e22bd5	1809.3698
13	0x44e1fb9d	1807.8629
14	0x449ef838	1271.7568
15	0x4530243f	2818.2654
16	0x449d5767	1258.7313
17	0x45c46985	6285.19
18	0x46075b53	8662.831
19	0x461a52c9	9876.696
20	0x45257914	2647.5674
21	0x450adcea	2221.8071
22	0x44ef7020	1915.5039
23	0x45022a67	2082.6501
24	0x45bf4a4a	6121.286
25	0x44d754ea	1722.6536
26	0x44fb813c	2012.0386
27	0x45746b63	3910.7117
28	0x44d268cf	1683.2753
29	0x4608a74c	8745.824
30	0x45795265	3989.1497
31	0x44a7bd7b	1341.9213
32	0x4590a28e	4628.3193
33	0x44f899b2	1988.803
34	0x46710275	15424.614
35	0x45038066	2104.025
36	0x453a75e8	2983.3691
37	0x45146313	2374.1921
38	0x4604f3a9	8508.915
39	0x4625d193	10612.394

conv_classifier.weight f4 [3, 40, 15, 1]
0	0x3e87508b	0.26428637
1	0x3e16b904	0.14719015
2	0x3d06d924	0.032921925
3	0xbc2af7a5	-0.01043502
4	0x3d5b436a	0.053531088
5	0x3daef485	0.08542732
6	0x3db360a2	0.087586656
7	0x3d8e9fe3	0.0696409
8	0x3da15f25	0.078794755
9	0x3cf40f56	0.029792469
10	0x3d9d2088	0.076722205
11	0x3c1f3d5b	0.009719218
12	0x3cac8e99	0.02106409
13	0xbc037bf5	-0.008025159
14	0xbccf4c99	-0.02530508
15	0x3e19aa96	0.1500648
16	0x3c9edd3a	0.019392598
17	0xbcfe5d79	-0.03105043
18	0xbd62c676	-0.05536505
19	0xbd1aca28	-0.037790447
20	0x3c43a468	0.011941053
21	0x3d61fee7	0.055174734
22	0x3da7c687	0.08192163
23	0x3e0520ae	0.13000748
24	0x3e22dc0e	0.15904257
25	0x3e285355	0.16438039
26	0x3e4149b1	0.18875767
27	0x3e10edb7	0.14153181
28	0x3dc7b856	0.09751956
29	0xbc27fd82	-0.010253312
30	0x3f3aae28	0.7292199
31	0x3f18aa88	0.5963521
32	0x3f0d4631	0.5518523
33	0x3f05cc6e	0.5226506
34	0x3f0d1c78	0.55121565
35	0x3f13a58c	0.5767448
36	0x3f1d1014	0.6135266
37	0x3f32eee1	0.6989575
38	0x3f3fed51	0.7497149
39	0x3f34a2f1	0.7056113
40	0x3f3f7eb2	0.74802697
41	0x3f3c88a9	0.73646027
42	0x3f3f7236	0.7478365
43	0x3f402108	0.750504
44	0x3f399627	0.7249474
45	0x3df894c2	0.12137748
46	0xbd3a835c	-0.04553543
47	0xbe277e63	-0.16356806
48	0xbe505bdd	-0.20347543
49	0xbe6bb987	-0.23019992
50	0xbe366245	-0.17810924
51	0xbe3e5873	-0.18588428
52	0xbe1c32b8	-0.15253723
53	0xbe05f310	-0.13081002
54	0xbdaac409	-0.08338172
55	0xbd3474d9	-0.044056747
56	0xbba5fde2	-0.0050656656
57	0xbc80f21b	-0.015740445
58	0xbd9bb733	-0.07603302
59	0xbe2f1b63	-0.17100291
60	0x3e954059	0.29150656
61	0x3d9d75e6	0.07688503
62	0x3c581827	0.013189352
63	0xbca68976	-0.020329218
64	0x3ca51be5	0.020154903
65	0x3c3c0fe1	0.011478395
66	0x3d334baa	0.04377333
67	0x3d42e26d	0.047579218
68	0xbb0e01b2	-0.002166849
69	0x3cfb5505	0.030680189
70	0x3c8a29af	0.01686558
71	0xbc429d64	-0.011878345
72	0xbb591d36	-0.0033128983
73	0xbcb414f5	-0.02198265
74	0xbd0749a8	-0.03302923
75	0x3ead8af9	0.3389509
76	0x3e4e282b	0.2013251
77	0x3df0b3af	0.11753022
78	0x3dc40ee3	0.09573152
79	0x3ddecd0f	0.108789556
80	0x3e5a792e	0.21335289
81	0x3e4c5e1e	0.19957778
82	0x3e660f7e	0.22466847
83	0x3e4e3e08	0.2014085
84	0x3e8fa382	0.28054434
85	0x3e7a0d1c	0.24419063
86	0x3e76bb0c	0.2409479
87	0x3e7b7450	0.24556088
88	0x3e76a04b	0.24084584
89	0x3e8b7126	0.27234763
90	0x3f2f5ca6	0.68500745
91	0x3f006ea9	0.50168854
92	0x3ec93db6	0.39304894
93	0x3ea801ca	0.32813865
94	0x3e6acc7c	0.22929567
95	0x3e70d915	0.2352031
96	0x3ea15b13	0.31514797
97	0x3eb32ab4	0.34993517
98	0x3ec96bee	0.39340156
99	0x3ed0c4c9	0.40775135
100	0x3eba429d	0.36378947
101	0x3eaf7ed3	0.34276447
102	0x3e960b27	0.29305384
103	0x3ec0594c	0.37568128
104	0x3ec69c34	0.3879105
105	0x3f28a868	0.6588197
106	0x3f04a0b0	0.5180769
107	0x3ec8bfd5	0.39208856
108	0x3e9927b8	0.29913116
109	0x3e9df18b	0.30848345
110	0x3ec349a8	0.38142133
111	0x3ec637db	0.3871449
112	0x3ecefb29	0.40425995
113	0x3edeaaf6	0.43489808
114	0x3ed07ef4	0.40721858
115	0x3eb1a260	0.34694195
116	0x3e942477	0.2893407
117	0x3e81ba02	0.25337225
118	0x3e9e7304	0.30947125
119	0x3ec4c153	0.38428745
120	0x3f7f1b25	0.99650794
121	0x3f5f93ff	0.873352
122	0x3f51a98e	0.81899345
123	0x3f4bcf09	0.79612786
124	0x3f4ee90e	0.80824363
125	0x3f4ed6e3	0.8079664
126	0x3f5dfe5b	0.8671624
127	0x3f656f7b	0.8962323
128	0x3f62a502	0.8853303
129	0x3f6154e2	0.88020146
130	0x3f61e68f	0.8824243
131	0x3f636e10	0.8883982
132	0x3f6989fd	0.9122618
133	0x3f5defb8	0.86693907
134	0x3f5b8cdb	0.85761803
135	0xbe60b15b	-0.21942656
136	0xbed376cd	-0.41301575
137	0xbef1f579	-0.47257593
138	0xbf03a94c	-0.514302
139	0xbefdf46a	-0.49600536
140	0xbee9a80c	-0.45636022
141	0xbece9c8c	-0.4035381
142	0xbeb81c2e	-0.35959
143	0xbeab2a7a	-0.33430845
144	0xbe98cf07	-0.2984545
145	0xbe7db3b6	-0.24775586
146	0xbe33b0ef	-0.17547964
147	0xbe470b87	-0.19437991
148	0xbe5fc159	-0.218511
149	0xbe4ddaaf	-0.20102952
150	0x3ea5b7c0	0.32366753
151	0x3e1c99a7	0.15292989
152	0x3db4eb55	0.088339485
153	0x3da7b83f	0.08189439
154	0x3db52c4d	0.0884634
155	0x3e1ee7a3	0.1551805
156	0x3e14c83c	0.14529508
157	0x3e2492f7	0.16071688
158	0x3e19ae56	0.1500791
159	0x3e42f132	0.19037321
160	0x3e50a7fb	0.2037658
161	0x3e5a9407	0.2134553
162	0x3e70240f	0.23451255
163	0x3e618a13	0.22025327
164	0x3e6b8d2b	0.2300307
165	0x3dfa28f4	0.122148424
166	0xbc0aae5b	-0.008464421
167	0xbd5e0a02	-0.054208763
168	0xbcab165e	-0.020884689
169	0x3aa85056	0.0012841325
170	0x3ca264b0	0.019823402
171	0x3c8d6ea2	0.017264668
172	0x3c45b2d9	0.012066566
173	0x3c3ff5a0	0.011716276
174	0x3c387cce	0.0112602245
175	0x3d2d30f4	0.042283013
176	0x3d8cd085	0.068757094
177	0x3ddfd44f	0.109291665
178	0x3dde4f6e	0.10854994
179	0x3cd20349	0.025636332
180	0x3ead055d	0.33793154
181	0x3e7ab643	0.2448359
182	0x3e49b73c	0.19698805
183	0x3e32368f	0.17403625
184	0x3de44d15	0.11147515
185	0x3e35d3b4	0.1775654
186	0x3e0f1b5e	0.13975284
187	0x3e173c7a	0.14769164
188	0x3e245e95	0.16051705
189	0x3e25b84b	0.16183583
190	0x3e3ad4f6	0.182453
191	0x3e3cf007	0.18450938
192	0x3e18cac5	0.149211
193	0x3dbde45a	0.0927207
194	0x3ce7558a	0.02823903
195	0x3f504708	0.81358385
196	0x3f1604a4	0.5860083
197	0x3ede60ab	0.43433127
198	0x3ece905a	0.40344507
199	0x3ec97e73	0.39354286
200	0x3ebb6bda	0.36605722
201	0x3ed555b1	0.4166694
202	0x3ed5b69a	0.41740876
203	0x3ede658a	0.43436843
204	0x3ee17ad6	0.4403903
205	0x3ee3e45c	0.44510162
206	0x3f0157f9	0.5052486
207	0x3f10c0d2	0.5654422
208	0x3f215169	0.6301485
209	0x3f50e3a0	0.8159733
210	0xbdaf47cb	-0.08558615
211	0xbea459b6	-0.32099694
212	0xbee336ca	-0.44377738
213	0xbf0bd928	-0.5462823
214	0xbf055528	-0.52083063
215	0xbef14252	-0.4712091
216	0xbefa46ab	-0.4888204
217	0xbedcce9d	-0.43126383
218	0xbed8a22e	-0.42311233
219	0xbed004fa	-0.40628797
220	0xbecdc46f	-0.4018893
221	0xbed2ae99	-0.41148832
222	0xbec352b4	-0.38149035
223	0xbee67a24	-0.4501506
224	0xbf08086e	-0.5313786
225	0xbb99270e	-0.004673845
226	0xbe31c6f7	-0.17361055
227	0xbe494443	-0.19654946
228	0xbe72b2f1	-0.23701073
229	0xbe62949e	-0.22127005
230	0xbe1eb6ea	-0.15499464
231	0xbe36c338	-0.17847908
232	0xbe5b5074	-0.21417409
233	0xbe240ec1	-0.16021253
234	0xbe079f63	-0.13244395
235	0xbe16e09c	-0.14734119
236	0xbe5c05f5	-0.21486647
237	0xbe982370	-0.29714537
238	0xbeb66c1f	-0.35629365
239	0xbefe981b	-0.49725422
240	0xbe28100d	-0.16412373
241	0xbe8ce92b	-0.27521643
242	0xbe95570e	-0.2916798
243	0xbeb102f6	-0.34572572
244	0xbebba09c	-0.36645973
245	0xbeb3e83c	-0.35138118
246	0xbeb49ffa	-0.35278302
247	0xbebc66ac	-0.36797082
248	0xbea66670	-0.3250003
249	0xbe9a78d7	-0.30170318
250	0xbe6d1f65	-0.23156507
251	0xbe6362b2	-0.22205618
252	0xbe9bb68c	-0.3041271
253	0xbeb413fa	-0.3517149
254	0xbef9c653	-0.48784122
255	0x3e92cd29	0.2867215

conv_classifier.bias f4 [3]
0	0xc03a167f	-2.907623
1	0xc0a92ee2	-5.286973
2	0xc0b1c35f	-5.555099
